data/torch_models/shrink_spot_simple/shrink_spot_simple_lan_0af81cb2bef111ef851fa0423f3e9b72_torch_model.onnx (onnx, 86336 bytes, 7 tensors)

layers.0.weight f4 [100, 9]
-0.59233654 -1.3308029 0.0613037 0.045041647 0.16619752 0.06736065 -0.0515435 0.042960454
0.49147183 -0.05322153 0.004949216 -0.5338697 -0.039930586 -0.19099046 -0.4319302 0.06701463
0.4023764 1.0122993 -0.38674006 -0.27490819 -0.89886886 0.010082336 0.016370924 0.32642785
0.0027206822 0.8642554 -0.19862118 3.0968714 -0.64831114 0.10989196 0.007455939 0.025002787
0.048868593 0.007902352 -0.15014131 -0.002744139 -0.5597769 -1.1160028 0.00013851911 -0.11719642
-0.28348625 -1.1008115 0.3735888 -0.0038223662 0.16678703 -0.0090132635 -0.50316113 -0.1030338
-0.0033577979 0.06263361 -2.7913816 0.48385513 0.1794376 0.17158125 0.18771727 -1.2509127
0.27041897 0.015213565 0.26423323 -1.0091622 -0.27178857 -0.2257273 0.69240993 -0.08514801
-0.23727717 -0.0045670834 -0.19553573 -0.3219733 -2.1463675 0.8555447 0.011786863 0.09947911
0.14636487 -0.42116964 0.002315888 -0.16517499 -0.08357102 0.33202547 -0.3236037 0.0032052835
-0.09643241 -0.42089477 -0.07476761 -0.011535585 0.056556392 0.31046447 -0.46665362 -0.16004588
-0.026897224 1.4889321 -0.879361 0.66913086 0.022335924 -0.08515818 -0.27267554 -0.08801859
0.22415899 -0.02222353 -0.045972787 0.26461628 0.1034768 -0.018353527 0.08008804 0.38934574
2.0234375 -0.25043222 0.040215153 -0.17186631 -1.0628626 -0.60003823 -0.30520764 0.05227054
0.14790022 -0.25812766 -0.08155116 0.24254832 -0.033307474 -0.2854408 0.3695883 0.015988506
0.12634966 0.8522171 -3.6261926 0.0058530527 -0.0026703503 -0.024090713 -0.063012704 0.20894496
0.0039230497 0.18842602 0.73244375 3.9184363 -0.6034964 -0.009174219 -0.08485142 1.7568456
-0.30454347 0.12258929 -0.017765123 -0.07093841 0.11602586 -0.06067338 -0.15938179 0.09726512
-0.8734744 -0.4158604 2.1038024 0.008980192 0.03229327 0.07994699 -0.018703505 -2.1377351
0.066337444 -0.43449175 -1.9983524 -0.042320553 -0.0010640261 -0.06804073 0.4042617 0.061259333
0.08447558 -1.1573238 0.43160883 0.42973015 0.026468359 -0.06926148 -0.23139332 -0.14809692
0.24778168 -0.02994237 -0.041551642 -0.23747467 0.31731224 -0.95174223 -0.00025846914 -0.007872933
-0.10739237 0.18727249 0.9454267 0.053620312 0.022400094 -0.08382425 0.04703095 0.09679127
-0.16081245 -3.179426 -1.0135245 -0.04066435 -0.62406856 0.020174228 1.0321225 -1.2675376
-0.00946848 -0.011255945 -0.027540974 0.03404992 1.2350024 -0.46367595 -0.5738609 0.2537235
-0.71110374 0.0070914654 0.04643633 -0.33673656 0.03758211 0.6884352 0.09440507 -0.109330855
1.0328205 0.2530426 0.011269959 -0.026695995 -4.0879188 0.037059955 -0.17747305 0.18318518
0.1321155 -0.90137845 0.2168443 -0.0039038549 -0.1617889 0.99137986 0.14465636 -0.09542111
0.22955975 0.308619 2.888281 0.033218093 0.0027684313 0.012239875 -0.2971429 0.006037577
-0.03226316 -2.4992037 -0.11562659 0.03425959 0.011731366 0.14062785 -0.13098381 -0.46688306
-0.35760957 -0.015325308 0.856687 0.011376252 0.032571267 0.03405095 -0.04643787 0.004001916
2.6376565 0.01845114 -0.00087039726 -0.000105641084 -0.459728 1.1290329 0.017492397 0.02037421
00000000: 5ea3 17bf c057 aabf 9719 7b3d 977d 383d
00000010: af2f 2a3e 61f4 893d 471f 53bd 4df7 2f3d
00000020: 32a2 fb3e d2fe 59bd 082d a23b afab 08bf
00000030: 418e 23bd 0193 43be f525 ddbe f73e 893d
00000040: 4804 ce3e 0693 813f cb02 c6be c4c0 8cbe
00000050: 451c 66bf 6230 253c 511c 863c 8d21 a73e
00000060: 794d 323b d83f 5d3f 5a63 4bbe 2433 4640
00000070: b8f7 25bf 090f e13d f350 f43b a5d2 cc3c
00000080: 6f2a 483d de78 013c a5be 19be 03d7 33bb
00000090: 8a4d 0fbf 2ed9 8ebf 713f 1139 ad04 f0bd
000000a0: 1c25 91be 64e7 8cbf 0847 bf3e aa80 7abb
000000b0: 38ca 2a3e 5eac 13bc 2bcf 00bf 6303 d3bd
000000c0: 800e 5cbb 0d46 803d ffa5 32c0 dcbb f73e
000000d0: 7dbe 373e ffb2 2f3e f538 403e e81d a0bf
000000e0: 5b74 8a3e 5142 793c 9449 873e 3a2c 81bf
000000f0: df27 8bbe 0f25 67be c741 313f 1462 aebd
00000100: c9f8 72be 79a7 95bb 853a 48be afd9 a4be
00000110: 165e 09c0 fa04 5b3f b01d 413c b4bb cb3d
00000120: ace0 153e 8ca3 d7be 27c6 173b a223 29be
00000130: 4827 abbd 3eff a93e 62af a5be bc0f 523b
00000140: 5b7e c5bd 857f d7be c31f 99bd c0ff 3cbc
00000150: ada7 673d 33f5 9e3e 39ed eebe 11e3 23be
00000160: 9157 dcbc 5495 be3f cd1d 61bf 294c 2b3f
00000170: d4f9 b63c 6967 aebd 219c 8bbe 1743 b4bd
00000180: ef89 653e 1f0e b6bc f64d 3cbd c97b 873e
00000190: a5eb d33d 235a 96bc 3305 a43d 5358 c73e
000001a0: 0080 0140 a738 80be a5b8 243d b9fd 2fbe
000001b0: e20b 88bf 1b9c 19bf 2d44 9cbe a219 563d
000001c0: 2873 173e 4f29 84be 4b04 a7bd 965e 783e
000001d0: 6b6d 08bd 4c25 92be ad3a bd3e 54fa 823c
000001e0: ce61 013e e62a 5a3f 8a13 68c0 f7ca bf3b
000001f0: 0b01 2fbb e359 c5bc ce0c 81bd abf5 553e
00000200: ed8c 803b c0f2 403e 6f81 3b3f a9c7 7a40
00000210: bd7e 1abf 774f 16bc 95c6 adbd 51e0 e03f
00000220: 1fed 9bbe 1810 fb3d 2a88 91bc 2848 91bd
00000230: f79e ed3d a684 78bd fb34 23be ef32 c73d
00000240: 059c 5fbf a8eb d4be b3a4 0640 a821 133c
00000250: f345 043d 3fbb a33d 1838 99bc a7d0 08c0
00000260: eddb 873d b475 debe 03ca ffbf 5158 2dbd
00000270: cb76 8bba f058 8bbd 64fb ce3e 11eb 7a3d
00000280: 8801 ad3d 3023 94bf d5fb dc3e 9705 dc3e
00000290: 2cd4 d83c f6d8 8dbd 5ff2 6cbe b8a6 17be
000002a0: 7bba 7d3e b349 f5bc 0e32 2abd 8f2c 73be
000002b0: c076 a23e 61a5 73bf 2483 87b9 79fd 00bc
000002c0: 88f0 dbbd 5cc4 3f3e 7c07 723f f9a0 5b3d
000002d0: 6780 b73c 0cac abbd 87a3 403d 803a c63d
000002e0: 05ac 24be b77b 4bc0 2cbb 81bf a98f 26bd
000002f0: f5c2 1fbf 6c44 a53c 971c 843f ac3e a2bf
00000300: af21 1bbc db6a 38bc 9c9d e1bc ee77 0b3d
00000310: 8f14 9e3f ef66 edbe 8ce8 12bf 0ce8 813e
00000320: e50a 36bf 865f e83b 0534 3e3d bc68 acbe
00000330: b3ef 193d 4a3d 303f 7257 c13d dbe8 dfbd
00000340: 7633 843f cd8e 813e a2a5 383c 8fb1 dabc
00000350: 3bd0 82c0 2ecc 173d 7fbb 35be e594 3b3e
00000360: 4949 073e bdc0 66bf 6f0c 5e3e d1d7 7fbb
00000370: fdab 25be 12cb 7d3f cc20 143e 256c c3bd
00000380: b611 6b3e 4f03 9e3e 99d9 3840 b20f 083d
00000390: 926e 353b c289 483c 1d23 98be ded6 c53b
000003a0: 6026 04bd f4f2 1fc0 a2cd ecbd c953 0c3d
000003b0: ea34 403c bf00 103e 9f20 06be 4c0b efbe
000003c0: 9a18 b7be 0017 7bbc d74f 5b3f 7663 3a3c
000003d0: 7369 053d 0279 0b3d a335 3ebd 8122 833b
000003e0: 5dcf 2840 d826 973c 5f2b 64ba a08b ddb8
000003f0: 7861 ebbe 2684 903f 374c 8f3c d1e7 a63c

layers.0.bias f4 [100]
0.6114176 -0.33120626 0.06407016 -0.44148955 0.20781131 -0.84061205 -0.11533683 -1.3411866
1.0047073 0.4389007 -0.34224516 -1.0432957 0.019440984 -0.35633114 0.76262456 -0.13108341
0.34592405 0.9462484 -1.5018299 -0.43971583 -0.40003762 -0.45034444 -0.18328756 -0.23673907
-0.19119027 -0.6013008 0.50939065 -0.026177255 -0.037510708 0.057216186 0.093590625 1.1570354
-0.04445874 0.04094106 0.73890424 0.17926005 0.034496605 0.45840973 0.3170408 0.34519085
0.12949426 -0.31996137 -0.09955945 0.4138602 -0.013228726 0.58007467 1.3802819 0.45080894
-0.17681262 1.1711607 0.059990443 0.49064815 0.30100203 -0.40651256 -0.5433877 0.34912542
-0.025744336 -0.4140012 0.08369102 0.54844064 0.12600768 1.517348 -0.9062191 0.089251705
-1.0064857 1.1107457 0.2102665 -0.40896565 -1.0639707 0.24251465 0.11409011 -0.037162725
-0.5498673 1.9514838 0.84071404 -0.3494647 -0.60773075 0.92098624 0.6006926 0.595909
0.39095935 2.4506116 -1.9714224 0.4957137 0.27128893 0.70475096 -0.08706159 -1.8911623
0.3444432 -1.0224024 -0.9689312 0.43211535 -0.28146046 0.6771461 -0.33011848 0.770766
0.019878171 -0.79312557 1.0869998 -0.8735093
00000000: dd85 1c3f de93 a9be 3737 833d eb0a e2be
00000010: 7dcc 543e 5a32 57bf b735 ecbd 01ac abbf
00000020: 409a 803f 98b7 e03e c23a afbe b78a 85bf
00000030: b342 9f3c 0971 b6be 5d3b 433f bb3a 06be
00000040: f51c b13e 563d 723f f63b c0bf 6f22 e1be
00000050: bbd1 ccbe 8c93 e6be bcaf 3bbe ba6b 72be
00000060: 62c7 43be d9ee 19bf 6d67 023f af71 d6bc
00000070: d4a4 19bd 855b 6a3d 71ac bf3d bc19 943f
00000080: 5e1a 36bd d0b1 273d d428 3d3f f28f 373e
00000090: 504c 0d3d aeb4 ea3e 2c53 a23e dbbc b03e
000000a0: 259a 043e fad1 a3be d3e5 cbbd 7ce5 d33e
000000b0: 4cbd 58bc c67f 143f 14ad b03f 6ed0 e63e
000000c0: 5e0e 35be 98e8 953f 8ab8 753d 3c36 fb3e
000000d0: f01c 9a3e 6a22 d0be 751b 0bbf 91c0 b23e
000000e0: c9e5 d2bc f7f7 d3be 3366 ab3d 9b66 0c3f
000000f0: 2808 013e 7638 c23f fafd 67bf 99c9 b63d
00000100: 86d4 80bf ea2c 8e3f 1a50 573e f263 d1be
00000110: 3130 88bf c355 783e 13a8 e93d f137 18bd
00000120: 1ac4 0cbf 39ca f93f 0939 573f 0aed b2be
00000130: 3e94 1bbf c1c5 6b3f fdc6 193f 7e8d 183f
00000140: d32b c83e d2d6 1c40 9257 fcbf 30ce fd3e
00000150: 62e6 8a3e 8f6a 343f 594d b2bd 9b11 f2bf
00000160: dc5a b03e 15de 82bf e00b 78bf 393e dd3e
00000170: 961b 90be 7259 2d3f 4a05 a9be ec50 453f
00000180: 8cd7 a23c 470a 4bbf cf22 8b3f 4e9e 5fbf

layers.2.weight f4 [100, 100]
0.13062425 -0.32531786 -1.856919 0.08352522 -0.16781239 0.06511095 -0.06312757 -0.04533201
0.075536 0.025831273 -0.025729083 0.0043171546 -0.13286231 0.040786225 -0.10883532 0.25700796
2.7727365 -0.4813744 -0.12146954 -0.29087007 0.021627434 -1.9680448 -0.81482905 -0.28801933
0.35649097 -1.3976866 -0.10121824 -0.06199658 -0.4283225 -1.0860757 0.06781504 -0.100531705
-0.065078795 0.21274237 0.029335665 1.0318847 0.5484064 -0.07194931 0.043499704 0.040593173
-2.828721 -0.15833431 3.1505277 0.18341169 0.02862564 -0.7472422 -0.09675906 -1.7835789
0.52923995 -0.016552085 -0.11596213 -0.032200005 0.026566222 0.017245991 0.0542576 0.4635468
-0.162852 -0.282372 -0.068472065 0.8036159 -0.009438097 -0.054402046 -0.08128792 0.024476813
0.06352457 0.021311792 0.008793483 0.9234337 -0.044300415 -0.58248234 0.3706215 -0.82190305
-0.020771688 -0.024045255 -0.0816667 -0.70582896 1.4139115 -0.032552987 0.067591585 -1.0990434
-0.63694394 -0.06231158 -0.04683099 0.043162644 -0.3462461 0.018670455 0.050975468 0.05583144
0.01855727 0.13685216 -0.019456713 -0.04119407 -0.045767143 0.035418212 -0.23134397 0.12408387
-0.047793765 0.19578427 0.046510667 0.26479316 0.09318872 -0.37119716 0.21448569 0.13837379
0.16265865 -0.5810566 -0.18326458 0.16438259 -0.07605189 0.22697082 -0.04686616 0.38776323
-0.22835453 -0.016367441 0.3884131 0.22619154 0.35154447 0.15880103 -0.1188267 -0.4097483
0.27025628 -0.0068202335 -0.41854775 -0.20845176 0.11250617 -0.5263995 -0.3488933 0.032626264
0.032421894 -0.16934146 0.023274379 -0.25221387 0.12845509 0.021463357 0.32443982 -0.09253877
-0.16546816 -0.060639426 -0.13128415 -0.16815801 -0.8861728 0.47814474 -0.23058134 -0.008162233
-0.20430835 -0.34883526 0.1510758 0.22502527 0.29397926 -0.26734778 -0.38516203 0.10997608
0.13300376 -0.048059124 0.07878391 0.42436075 -0.5474564 0.46005684 -0.49597162 -0.5786155
0.25518802 0.17390083 0.10257281 0.17485426 0.15711859 0.23330368 -0.26211953 -0.61776346
-0.39043564 -0.5544057 -0.47286627 -0.50217414 -0.03081109 -0.2328146 -0.35843396 -0.114065684
0.30635947 0.18300866 0.016682087 -0.29949835 0.02027074 0.049110897 -0.011731987 0.15214923
0.3063671 -0.11927756 0.48602837 -0.620993 -0.08245293 0.22598568 0.2667277 -0.34982622
0.100182764 -0.1424602 1.6920822 0.6897571 -0.22130975 -0.24154481 -0.727848 0.39050704
0.43747467 -0.23191004 -0.28381324 0.004597714 -0.21803702 -0.0395528 0.060569398 -0.015139061
-0.028979385 0.14858444 0.29765317 -0.12926501 -0.047997065 0.013259173 0.14686288 0.1842842
0.7102811 -0.093309395 0.22439104 0.039815698 0.02743004 -0.7109204 -0.11890359 -0.18024024
0.07488337 -0.12751693 0.02344747 -0.07944767 0.10494753 -0.4503701 0.3303785 0.07807548
0.018718565 0.029257584 -0.13711946 0.34372061 0.27000517 -0.039575968 0.06560274 -0.07809078
-0.3892696 -0.115731955 0.9734893 0.31362727 -0.023899186 0.040910166 0.20369111 -0.55813044
0.13792303 0.010392678 0.07026644 -0.01985071 -0.023269694 -0.028073994 0.0028178063 0.19094788
00000000: 5dc2 053e 1090 a6be 86af edbf 450f ab3d
00000010: 03d7 2bbe e458 853d 0749 81bd 0fae 39bd
00000020: 9eb2 9a3d 1b9c d33c ccc5 d2bc eb76 8d3b
00000030: 0f0d 08be 750f 273d 0de5 debd 8c96 833e
00000040: 8474 3140 b576 f6be 06c5 f8bd ecec 94be
00000050: 042c b13c e4e8 fbbf a398 50bf 4577 93be
00000060: fc85 b63e 65e7 b2bf 824b cfbd 20f0 7dbd
00000070: 164d dbbe 8704 8bbf 9de2 8a3d 91e3 cdbd
00000080: 0848 85bd 23d9 593e 5951 f03c cc14 843f
00000090: 5d64 0c3f 295a 93bd bf2c 323d 0745 263d
000000a0: c409 35c0 6422 22be 3fa2 4940 46d0 3b3e
000000b0: 5180 ea3c 444b 3fbf 9d29 c6bd 504c e4bf
000000c0: 457c 073f 3d98 87bc 8e7d edbd 27e4 03bd
000000d0: 68a1 d93c 7747 8d3c 383d 5e3d 0256 ed3e
000000e0: adc2 26be 1093 90be 153b 8cbd c6b9 4d3f
000000f0: 3fa2 1abc aed4 5ebd 487a a6bd 9983 c83c
00000100: 2b19 823d 1196 ae3c 8a12 103c 2766 6c3f
00000110: 5a74 35bd 901d 15bf 1ac2 bd3e 3d68 52bf
00000120: 6329 aabc 8efa c4bc df40 a7bd 35b1 34bf
00000130: 0dfb b43f 4856 05bd 756d 8a3d 74ad 8cbf
00000140: c20e 23bf 6d3a 7fbd dad1 3fbd 50cb 303d
00000150: 2b47 b1be c8f2 983c a7cb 503d 82af 643d
00000160: 6a05 983c f922 0c3e af63 9fbc 1dbb 28bd
00000170: 5476 3bbd b012 113d 6fe5 6cbe af1f fe3d
00000180: 65c3 43bd ac7b 483e f881 3e3d f892 873e
00000190: bad9 be3d 8e0d bebe 23a2 5b3e dcb1 0d3e
000001a0: fd8f 263e 20c0 14bf b6a9 3bbe e953 283e
000001b0: 18c1 9bbd 0a6b 683e bbf6 3fbd e788 c63e
000001c0: c5d5 69be 0315 86bc 15de c63e c19e 673e
000001d0: a3fd b33e bd9c 223e 6a5b f3bd 87ca d1be
000001e0: 085f 8a3e 447c dfbb e44b d6be 6174 55be
000001f0: a369 e63d 1ec2 06bf 25a2 b2be 1ea3 053d
00000200: d2cc 043d d967 2dbe e9a9 be3c 2d22 81be
00000210: bb89 033e ecd3 af3c fa1c a63e f784 bdbd
00000220: 7c70 29be 0c61 78bd 5a6f 06be 9d31 2cbe
00000230: 38dc 62bf 63cf f43e 841d 6cbe e3ba 05bc
00000240: 3536 51be 899a b2be 9db3 1a3e 066d 663e
00000250: 7384 963e cfe1 88be f533 c5be 243b e13d
00000260: 2332 083e a5d9 44bd 7559 a13d d045 d93e
00000270: 1a26 0cbf 928c eb3e feef fdbe 2520 14bf
00000280: 01a8 823e 0f13 323e b211 d23d ff0c 333e
00000290: b2e3 203e 29e7 6e3e 8834 86be bf25 1ebf
000002a0: 2ee7 c7be 88ed 0dbf 871b f2be 7c8e 00bf
000002b0: 8a67 fcbc f366 6ebe a884 b7be 459b e9bd
000002c0: 26db 9c3e 9f66 3b3e dfa8 883c d957 99be
000002d0: d30e a63c 8228 493d 8537 40bc 02cd 1b3e
000002e0: 26dc 9c3e cb47 f4bd b6d8 f83e 66f9 1ebf
000002f0: 15dd a8bd ca68 673e 8890 883e 6c1c b3be
00000300: 9f2c cd3d 16e1 11be 2696 d83f ec93 303f
00000310: 069f 62be 8657 77be 3f54 3abf 8af0 c73e
00000320: aefc df3e d379 6dbe f84f 91be 6ca8 963b
00000330: 1945 5fbe 1e02 22bd 9e17 783d d309 78bc
00000340: 2d66 edbc 8526 183e ff65 983e 0c5e 04be
00000350: 9298 44bd 013d 593c 3963 163e ffb4 3c3e
00000360: fbd4 353f ff18 bfbd c4c6 653e c915 233d
00000370: f7b4 e03c e1fe 35bf ba83 f3bd e690 38be
00000380: 745c 993d cc93 02be e914 c03c 76b5 a2bd
00000390: bbee d63d e996 e6be 5f27 a93e 0ae6 9f3d
000003a0: ad57 993c 9aad ef3c 0b69 0cbe 26fc af3e
000003b0: 1e3e 8a3e 691a 22bd bb5a 863d 0fee 9fbd
000003c0: 584e c7be e004 edbd 9836 793f c193 a03e
000003d0: 3ac8 c3bc 6b91 273d 6794 503e a3e1 0ebf
000003e0: b23b 0d3e 0d46 2a3c dae7 8f3d f59d a2bc
000003f0: 16a0 bebc 6ffb e5bc f2aa 383b d787 433e

layers.2.bias f4 [100]
0.034679625 0.34578466 0.19356354 -0.19956487 -0.086294256 -0.76340574 -0.4650029 0.033824135
-0.17122659 0.06793015 0.13284959 -0.4688545 -0.39692795 0.3951501 -0.3565489 -0.07071342
0.62254745 0.29091123 -0.44822323 0.029220255 0.424878 -0.18796194 -0.5767422 -0.15050583
0.14922681 0.27068892 -0.1563391 -0.6195139 -0.45857933 -0.40224543 0.25932056 -0.49361992
-0.27263278 0.2943045 -0.39952633 -0.019906588 -0.4995908 -0.20644456 -0.5553868 -0.19350724
0.22608468 -0.119880214 0.06545721 0.13844949 -0.13013034 0.3193036 -0.41166952 -0.2999816
-0.13653074 -0.12644298 0.15351969 -0.29973954 0.1446321 0.04967407 0.29434288 0.08608763
0.15116179 0.06188981 0.1756861 0.2237202 0.032413017 -0.008720599 0.19493446 -0.08458179
0.64290255 0.070355095 -0.42854273 0.10118623 -0.28716165 -0.15363495 0.58036274 -0.13578257
0.30889595 0.43096516 -0.0029839252 -0.051381644 -0.39589518 -0.6724783 0.26952142 0.01228082
-0.046370562 0.051712602 -0.08541244 -0.1499465 -0.43643135 -0.43359283 -0.1216622 0.36045843
-0.101494186 0.081375316 -0.00032398262 -0.19346406 -0.72406083 0.34541783 -0.064370774 0.10507475
0.6508185 -0.24126682 0.09892814 0.13073593
00000000: 390c 0e3d b00a b13e 8535 463e bc5a 4cbe
00000010: 0bbb b0bd 8f6e 43bf dc14 eebe 2d8b 0a3d
00000020: 0656 2fbe f61e 8b3d b909 083e b20d f0be
00000030: 243a cbbe 1d51 ca3e 948d b6be 33d2 90bd
00000040: 455f 1f3f 51f2 943e 847d e5be 515f ef3c
00000050: 9c89 d93e 1879 40be 60a5 13bf 331e 1abe
00000060: eace 183e bd97 8a3e 5b17 20be 7798 1ebf
00000070: e9ca eabe 1df3 cdbe aac5 843e c0bb fcbe
00000080: 8696 8bbe 14af 963e b78e ccbe 2413 a3bc
00000090: 5eca ffbe 3466 53be d42d 0ebf c326 46be
000000a0: be82 673e c283 f5bd 6e0e 863d b4c5 0d3e
000000b0: e340 05be c37b a33e 59c6 d2be 3097 99be
000000c0: b7ce 0bbe 457a 01be 4434 1d3e 7677 99be
000000d0: 701a 143e 0a77 4b3d 1cb4 963e b64e b03d
000000e0: 28ca 1a3e 2b80 7d3d 0fe7 333e e816 653e
000000f0: 83c3 043d d8e0 0ebc e69c 473e 3839 adbd
00000100: 4395 243f 5516 903d f469 dbbe ba3a cf3d
00000110: da06 93be 7b52 1dbe a792 143f 960a 0bbe
00000120: 9c27 9e3e 77a7 dc3e f58d 43bb 8f75 52bd
00000130: c6b2 cabe 8a27 2cbf b6fe 893e 7e35 493c
00000140: 0fef 3dbd 98d0 533d b8ec aebd 938b 19be
00000150: ee73 dfbe e1ff ddbe 082a f9bd 028e b83e
00000160: 2fdc cfbd 1aa8 a63d 36dc a9b9 711b 46be
00000170: 0d5c 39bf 9bda b03e d3d4 83bd 6e31 d73d
00000180: 0b9c 263f a60e 77be d69a ca3d a4df 053e

layers.4.weight f4 [100, 100]
-0.04458447 -0.08338975 -0.0240835 0.029963773 -0.2690663 -0.08187719 -0.12957789 -0.076593675
0.07966609 -0.07248869 -0.043822866 -0.0022017346 0.0017455257 -0.027422363 0.13948022 -0.0061238147
-0.11657953 0.08639257 0.04840401 -0.022084942 0.00072909286 0.12269853 0.07120079 0.037648495
0.042874865 -0.026689995 0.032801278 0.11103177 0.025473177 -0.055393834 0.06476921 0.06535027
0.03475572 -0.015541221 0.050507277 0.070825264 0.030621605 -0.030825827 0.0037371037 -0.0010293551
0.008981274 0.011607732 -0.039196767 -0.040073972 -0.016985888 -0.08150852 0.010216793 0.080443695
0.07194551 0.06150223 -0.1250193 -0.0042490223 0.0027044201 -0.030677142 -0.021757694 -0.028440969
0.020676138 0.0040059057 0.051279232 0.051737193 -0.025937168 -0.042786673 -0.032107454 0.03339301
0.006370877 -0.047107838 0.09178328 -0.05455999 0.07504676 -0.05597453 -0.0130638275 0.011919743
-0.06354152 -0.028163258 0.03359203 0.10120501 -0.070722036 0.103146836 -0.09732041 0.05467779
-0.0066196 0.029197082 -0.0063066036 -0.08803483 0.07630248 0.032189347 -0.05662638 0.03511244
0.03612976 -0.03446336 -0.011996674 0.110853426 0.03729996 -0.0049424795 -0.0021367497 -0.022146381
-0.052217115 -0.25618818 0.027153367 0.1244705 0.88026875 0.47550634 -0.9956395 -0.007869494
0.21423864 0.16448963 0.507344 -0.40353543 -0.16042022 -0.34207463 -0.068049476 0.13081232
-0.33849868 0.011949765 -0.0963064 -0.19053431 0.24049464 -0.51062745 -0.15546808 -0.3140349
0.13068338 0.07104252 -0.17056915 -0.2444747 -0.011318243 0.33239678 -0.014373132 -0.09847205
-0.093793705 0.3649521 -0.4807768 -0.03451003 -0.24490948 0.26018426 -0.15978056 -0.38536334
-0.4522243 0.4018434 -0.34033695 0.06456762 0.22885117 -0.29164562 0.008782044 -0.038317733
-0.309045 0.6290882 -0.03232299 -0.3179907 -0.19271575 -0.069350794 0.5762923 -0.06089043
0.09392565 -0.2472261 -0.15233278 0.2780107 0.0118321 -0.34240767 -0.39245927 -0.2551576
0.2611677 0.028991433 -0.12447895 -0.37871876 0.35546643 -0.7153404 -0.26051742 -0.2580439
0.101771526 -0.3241369 -0.025641926 -0.4405174 0.22648671 -0.10218294 -0.86695576 0.14308898
-0.22629654 -0.4975515 0.20984285 0.15773971 0.28697398 -0.48210523 -0.10305311 0.03404623
-0.31356058 0.18365306 0.45936885 -0.08740291 0.22502369 0.006207844 0.028849406 -0.36015442
-0.16847917 0.26964056 0.2675899 0.4097416 0.26910007 0.7810658 0.1729465 -0.4877055
-0.9295142 0.14 0.9308645 0.08710382 -0.3230141 -0.054697987 -0.5327657 0.38150555
0.22830261 0.25358117 -0.62663454 -0.14575832 0.13062946 -0.3293638 -0.16493388 0.38237575
-0.3762741 0.17435122 0.43566582 0.49559537 -0.187531 -0.11811369 0.23515396 0.11616215
0.41511056 -0.39573902 0.19304076 0.26400837 0.09825521 0.287446 0.5449464 0.08854692
0.38123563 -0.16104268 0.15827358 0.37783843 0.520894 0.050480362 0.24683806 -0.043397043
-0.20364727 -0.0990573 -0.40103057 0.1964271 0.3248522 -0.72230774 -0.07204583 -0.0582811
0.26441985 -0.15331426 -0.08364801 -0.06887998 0.11511352 -0.082708836 0.25188908 -0.25073847
00000000: 359e 36bd 3fc8 aabd c34a c5bc 9676 f53c
00000010: 0fc3 89be 3aaf a7bd 11b0 04be 25dd 9cbd
00000020: fa27 a33d f374 94bd 9b7f 33bd fa4a 10bb
00000030: 20ca e43a dda4 e0bc e7d3 0e3e 48aa c8bb
00000040: 40c1 eebd 96ee b03d 4843 463d 7beb b4bc
00000050: 9820 3f3a 5e49 fb3d b8d1 913d 4f35 1a3d
00000060: 8e9d 2f3d faa4 dabc a25a 063d a064 e33d
00000070: 20ad d03c a5e4 62bd b8a5 843d 5dd6 853d
00000080: 045c 0e3d 9ba0 7ebc b8e0 4e3d d60c 913d
00000090: 29da fa3c 7286 fcbc 32ea 743b 6deb 86ba
000000a0: 3226 133c 5b2e 3e3c ca8c 20bd 9b24 24bd
000000b0: fd25 8bbc f0ed a6bd 5664 273c aabf a43d
000000c0: 2b58 933d c3e9 7b3d 0f05 00be 623b 8bbb
000000d0: a43c 313b a14e fbbc 313d b2bc 09fd e8bc
000000e0: 0161 a93c f943 833b 2c0a 523d 61ea 533d
000000f0: 2f7a d4bc 1441 2fbd 1b83 03bd 1cc7 083d
00000100: cac2 d03b 26f4 40bd dff8 bb3d 4c7a 5fbd
00000110: 1eb2 993d 8c45 65bd aa09 56bc 074b 433c
00000120: 0e22 82bd a2b6 e6bc cc97 093d 9344 cf3d
00000130: b7d6 90bd a63e d33d ec4f c7bd d1f5 5f3d
00000140: 3be9 d8bb b82e ef3c a0a7 cebb 9b4b b4bd
00000150: 7a44 9c3d fad8 033d 10f1 67bd 10d2 0f3d
00000160: cdfc 133d 7429 0dbd b38d 44bc 1f07 e33d
00000170: d8c7 183d 86f4 a1bb b608 0cbb 546c b5bc
00000180: 9de1 55bd 192b 83be bd70 de3c 64ea fe3d
00000190: 4b59 613f 9175 f33e 3be2 7ebf 0def 00bc
000001a0: 6061 5b3e f86f 283e 4ce1 013f 329c cebe
000001b0: 3345 24be 6824 afbe 865d 8bbd aaf3 053e
000001c0: b34f adbe f2c8 433c 4a3c c5bd 6d1b 43be
000001d0: 3a44 763e 7bb8 02bf 0633 1fbe 2fc9 a0be
000001e0: ddd1 053e be7e 913d aea9 2ebe 9357 7abe
000001f0: 2770 39bc e92f aa3e 497d 6bbc b7ab c9bd
00000200: ea16 c0bd 00db ba3e 6028 f6be 645a 0dbd
00000210: 8dc9 7abe df36 853e 849d 23be 584e c5be
00000220: f289 e7be 6bbe cd3e a540 aebe 073c 843d
00000230: f657 6a3e 9352 95be 90e2 0f3c 0ef3 1cbd
00000240: 253b 9ebe ed0b 213f 1d65 04bd adcf a2be
00000250: 4757 45be ca07 8ebd e487 133f 3e68 79bd
00000260: 175c c03d d728 7dbe 20fd 1bbe 6b57 8e3e
00000270: 6ddb 413c 0f50 afbe 6cf0 c8be 04a4 82be
00000280: c6b7 853e 717f ed3c d2ee febd 6de7 c1be
00000290: b2ff b53e 8c20 37bf 8a62 85be 541e 84be
000002a0: 976d d03d 46f5 a5be 040f d2bc 7f8b e1be
000002b0: 22ec 673e 4a45 d1bd d0f0 5dbf eb85 123e
000002c0: 48ba 67be 12bf febe 0be1 563e 8586 213e
000002d0: 41ee 923e 7fd6 f6be 820d d3bd 0f74 0b3d
000002e0: 038b a0be 8c0f 3c3e 6532 eb3e 4c00 b3bd
000002f0: 9c6c 663e 2b6b cb3b 9755 ec3c 2966 b8be
00000300: ce85 2cbe 540e 8a3e 8b01 893e a7c9 d13e
00000310: 7cc7 893e eef3 473f e318 313e 89b4 f9be
00000320: a5f4 6dbf 295c 0f3e 234d 6e3f 7d63 b23d
00000330: 1b62 a5be ff0a 60bd 5563 08bf b254 c33e
00000340: 29c8 693e 64d5 813e 1f6b 20bf ab41 15be
00000350: bbc3 053e 5fa2 a8be 6de4 28be c1c6 c33e
00000360: 00a7 c0be 2089 323e 970f df3e adbe fd3e
00000370: 2008 40be 97e5 f1bd 33cc 703e 6ce6 ed3d
00000380: 5f89 d43e 4e9e cabe 7aac 453e 1b2c 873e
00000390: 073a c93d 1f2c 933e 9b81 0b3f 1658 b53d
000003a0: 5131 c33e 5fe8 24be 7812 223e 0a74 c13e
000003b0: 4f59 053f 7fc4 4e3d 1ec3 7c3e 19c1 31bd
000003c0: e988 50be 8ede cabd e153 cdbe 3024 493e
000003d0: 0753 a63e 29e9 38bf c48c 93bd 2ab8 6ebd
000003e0: 0a62 873e 6afe 1cbe a64f abbd f210 8dbd
000003f0: a3c0 eb3d 4063 a9bd 9bf7 803e cb60 80be

layers.4.bias f4 [100]
0.07067025 0.21891621 -0.15114985 0.21186544 0.31075105 0.4985782 0.20705804 0.17948818
0.2961073 0.06728462 -0.7553587 0.16860741 0.028244501 0.068008736 0.4713235 -0.35859656
0.6417024 0.30758548 0.23518762 0.23451358 -0.4419421 0.1800038 0.3027892 0.24559955
0.39050925 -0.1886795 0.21856546 0.28566077 -0.7689446 -0.18708816 0.2807643 -0.6253099
-0.03231631 -0.058292124 -0.18728244 0.6931967 0.5461912 -0.63346374 0.3673564 -0.27138144
0.91411245 -0.2643678 -0.3476654 -0.3680571 -0.42291728 -0.26471138 0.24228044 0.27903748
0.3453981 0.17517896 0.038526863 -0.08411515 -0.17980768 0.23999642 -0.21695426 -0.5613574
-0.26355362 0.27752948 0.25457016 0.014123443 0.07027537 -0.02565581 -0.44012552 -0.3368855
-0.30818066 -0.14123857 -0.37706974 -0.24945924 -0.43290973 0.2774012 -0.20630322 -0.443879
0.018664546 -0.37345868 0.15536736 -0.34887442 -0.4495662 0.23637755 -0.015574446 0.29773396
-0.32027474 0.26498866 0.023725532 -0.023052352 0.34619063 -0.26095402 0.34457076 0.39542294
-0.24797843 0.6255373 -0.29243463 -0.38522106 -0.3358163 -0.7206577 0.0335064 -0.59385663
-0.34684044 -0.15740378 0.17748025 -0.5216898
00000000: 90bb 903d 922b 603e 07c7 1abe 41f3 583e
00000010: c31a 9f3e a445 ff3e 0607 543e c0cb 373e
00000020: 609b 973e 85cc 893d 305f 41bf 6ca7 2c3e
00000030: 0361 e73c 2a48 8b3d 5051 f13e f899 b7be
00000040: 9c46 243f d87b 9d3e 06d5 703e 5424 703e
00000050: 3c46 e2be eb52 383e 3007 9b3e 737e 7b3e
00000060: d4f0 c73e 3335 41be a0cf 5f3e 2142 923e
00000070: 8ed9 44bf 0a94 3fbe 57c0 8f3e 4f14 20bf
00000080: 1b5e 04bd b9c3 6ebd f8c6 3fbe 5775 313f
00000090: 30d3 0b3f ae2a 22bf 2316 bc3e 82f2 8abe
000000a0: 4603 6a3f 375b 87be 3301 b2be fb71 bcbe
000000b0: 9d88 d8be 4088 87be 5d18 783e 00de 8e3e
000000c0: 05d8 b03e 1d62 333e 58ce 1d3d 9044 acbd
000000d0: 811f 38be 9fc1 753e 4229 5ebe 1eb5 0fbf
000000e0: 80f0 86be 5818 8e3e 0557 823e 0366 673c
000000f0: 88ec 8f3d 222c d2bc 2258 e1be 427c acbe
00000100: dbc9 9dbe d8a0 10be 490f c1be 3e72 7fbe
00000110: 58a6 ddbe 8807 8e3e 2741 53be 1c44 e3be
00000120: 64e6 983c fa35 bfbe 9f18 1f3e ab9f b2be
00000130: 8a2d e6be f50c 723e f62b 7fbc 9670 983e
00000140: 0dfb a3be 98ac 873e 0c5c c23c 49d8 bcbc
00000150: e63f b13e c49b 85be 946b b03e e074 ca3e
00000160: 0fee 7dbe 3623 203f feb9 95be b23b c5be
00000170: 1df0 abbe 067d 38bf 023e 093d fd06 18bf
00000180: 1295 b1be 752e 21be 62bd 353e 768d 05bf

layers.6.weight f4 [1, 100]
-0.04321552 -0.20821957 0.1112712 -0.06603005 -0.17978409 -0.314652 -0.32491633 -0.20035149
-0.12721014 -0.5862894 0.10684904 -0.091103375 0.31227618 -0.30501145 -0.26704583 0.19375704
-0.646538 -0.32534388 -0.0788549 -0.26488507 0.24121007 -0.06393405 -0.12594518 -0.13403483
-0.16725858 -0.8708006 -0.14980918 -0.10069191 0.6053601 -0.68086225 -0.086898096 0.34329212
0.12474384 0.5165358 0.1339394 -0.36733672 -0.22970578 0.31522876 -0.41461283 0.44690573
-0.24560009 0.099705815 0.18682148 0.18894099 0.19297466 0.037254564 -0.07878848 -0.43010408
-0.29830512 -0.12269662 -0.7321213 0.6799706 0.08220316 -0.10750288 0.09054507 0.18549497
0.1300693 -0.10914995 -0.15774012 -0.4616316 0.74952394 -0.5159865 0.2930531 0.38348785
0.05505165 0.08852037 0.17845841 0.39678556 0.13866551 -0.1160831 0.24815854 0.2481516
-0.4722093 0.33309832 -0.15668015 0.2351907 0.20230643 -0.15156001 -0.41063783 -0.21093734
0.19224209 -0.0861008 -0.3263682 0.5667865 -0.16447532 0.16700035 -0.3327065 -0.21599552
0.12092319 -0.5913124 0.17727964 0.14837232 0.063723505 0.24191804 -0.36566967 0.15821306
0.14084814 0.27621073 -0.15668756 0.58814955
00000000: c202 31bd 8337 55be 28e2 e33d c33a 87bd
00000010: 5219 38be 111a a1be 6f5b a6be f128 4dbe
00000020: 6043 02be 1017 16bf abd3 da3d 6894 babd
00000030: aae2 9f3e 762a 9cbe 3bba 88be 3f68 463e
00000040: 8483 25bf 7993 a6be ae7e a1bd 049f 87be
00000050: c6ff 763e dbef 82bd c6f7 00be 6d40 09be
00000060: d545 2bbe caec 5ebf 9467 19be 8f37 cebd
00000070: e1f8 1a3f fd4c 2ebf a1f7 b1bd fcc3 af3e
00000080: b379 ff3d b13b 043f 6927 093e 8f13 bcbe
00000090: fe37 6bbe aa65 a13e 2248 d4be d4d0 e43e
000000a0: 977e 7bbe 9032 cc3d 214e 3f3e bf79 413e
000000b0: 269b 453e 3e98 183d db5b a1bd 9a36 dcbe
000000c0: 73bb 98be 5e48 fbbd 4d6c 3bbf 8e12 2e3f
000000d0: 215a a83d 782a dcbd b26f b93d 65f2 3d3e
000000e0: e330 053e 028a dfbd a086 21be fa5a ecbe
000000f0: cde0 3f3f b117 04bf 0e0b 963e 8558 c43e
00000100: d77d 613d 2b4a b53d cdbd 363e 7a27 cb3e
00000110: 55fe 0d3e fabc edbd 461d 7e3e 741b 7e3e
00000120: 6bc5 f1be dd8b aa3e c370 20be d5d5 703e
00000130: 6b29 4f3e 8c32 1bbe 1f3f d2be f5ff 57be
00000140: 1cdb 443e 9e55 b0bd bc19 a7be ec18 113f
00000150: 386c 28be 2402 2b3e 8258 aabe ee2d 5dbe
00000160: 94a6 f73d 4060 17bf cb88 353e eaee 173e
00000170: 7881 823d 5db9 773e 0e39 bbbe 9b02 223e
00000180: 7f3a 103e 7e6b 8d3e b472 20be f890 163f
